data/cache/embeddings/b54512402c20b37fb5ec75777ac97543.npy (npy, 1664 bytes, 1 tensors)

array f4 [384]
-0.008682366 0.042481605 -0.017128611 -0.034600317 -0.08227839 -0.03318439 0.01848574 0.049954217
-0.00017978666 -0.036928453 0.103584856 0.023423 0.023416806 -0.008087107 0.039135337 -0.030343644
0.037752964 0.004423377 -0.053805992 -0.11195538 0.07450824 -0.014180816 0.016580064 -0.038046557
-0.10913748 -0.050470095 -0.047581628 -0.0069743986 0.050550543 0.04127226 0.014149285 0.020221364
0.038689137 -0.010967147 -0.14638929 0.000985389 -0.04756171 0.032001946 -0.03243656 0.028698908
-0.07320468 -0.089088805 0.0414905 -0.06896111 0.10456404 -0.00999933 -0.05779541 -0.0047842744
0.0054953326 0.060898446 -0.15225163 -0.07256888 0.04790157 -0.06627658 0.00844555 -0.021873096
-0.0554671 0.011731397 0.0042298846 0.035349067 0.031987537 0.062200077 -0.03812991 0.039550953
0.060975596 -0.041621547 -0.02358444 0.045058925 0.041850254 -0.036896914 -0.0017312916 -0.042418014
0.015686538 0.022142198 -0.08255608 -0.004263684 0.0005128935 -0.055444576 -0.057239756 0.10536422
-0.054857977 0.03880993 0.031989105 -0.0133988885 -0.035322383 -0.018840713 -0.012086229 -0.0052121393
-0.09865945 0.007883299 0.05881194 0.0801872 -0.038503397 0.044234578 -0.051181734 -0.015174408
-0.057500254 0.0131729 -0.050689038 0.057859793 -0.003550649 0.039637547 -0.033345114 0.05672043
-0.106031 -0.021343058 0.057546917 -0.037876263 0.07472536 0.0027704462 -0.05385773 -0.06977126
-0.117050074 -0.1026686 -0.030399257 0.021238027 -0.02991504 -0.0057332725 -0.037446834 -0.017391922
0.004685648 0.032329183 -0.031266224 -0.06611268 -0.04481342 -0.12581626 0.084283985 1.5987252e-32
-0.08416117 -0.00020470274 0.04247195 0.017873669 0.027409589 0.04022311 -0.017703803 -0.014853576
-0.006611445 -0.013119824 0.0095433155 -0.09261965 -0.09420542 0.014317473 0.056953125 0.0069525084
-0.033444926 0.0010881706 -0.022495935 0.086006574 0.016465269 -0.0391357 0.030207306 -0.05312959
0.011081164 0.047926567 0.059353292 0.0008054624 -0.042027734 0.030805703 0.05529386 -0.02529155
-0.020713033 -0.06542858 -0.043126114 -0.023856403 -0.0027436775 -0.0351313 0.01720295 -0.010192826
-0.03167418 0.0007781643 0.010863149 0.03732647 0.012335128 0.08620326 0.004688451 -0.015286184
0.01422738 0.0023084998 -0.059725214 0.037480142 0.010706138 0.066870436 0.044714812 0.077728905
0.13944119 -0.005807526 -0.046553563 0.003514058 -0.065222144 -0.013810276 -0.014942883 -0.040064838
0.051243525 -0.019720277 0.030227136 -0.016461259 0.030165385 -0.07423254 0.023582548 -0.0020270962
-0.003417866 0.11256072 -0.15056893 0.018646946 -0.05145476 -0.0027064644 0.01999327 0.022523783
-0.016186474 0.007434727 0.024096793 -0.1578219 0.083313726 0.035266444 -0.03482251 -0.015312173
0.00766282 0.03538442 0.00017529291 0.03633234 0.05103301 -0.00949026 -0.013405078 -2.0302033e-32
0.01740552 0.12113581 -0.09752342 0.110438585 0.10117166 0.02008426 -0.015912663 0.05854267
0.066209674 0.076951034 -0.05722507 -0.032817457 -0.02321651 -0.00044899352 -0.019648982 0.024382744
-0.039333656 -0.015609146 -0.056710783 0.010121557 -0.024522614 0.07149413 -0.009798335 0.045921784
-0.07773109 -0.05936796 -0.016434608 -0.0863398 -0.06045909 -0.0213309 0.034605548 -0.08654414
00000000: 7c40 0ebc 3101 2e3d 4d51 8cbc 10b9 0dbd
00000010: 9381 a8bd 5bec 07bd 686f 973c cb9c 4c3d
00000020: 1d85 3cb9 4a42 17bd 4c24 d43d 97e1 bf3c
00000030: 9ad4 bf3c c97f 04bc 604c 203d 3c93 f8bc
00000040: daa2 1a3d faf1 903b ac63 5cbd dd48 e5bd
00000050: c797 983d a756 68bc ead2 873c b5d6 1bbd
00000060: 7983 dfbd bbb9 4ebd f4e4 42bd 7f89 e4bb
00000070: 160e 4f3d 1a0d 293d 67d2 673c 46a7 a53c
00000080: 8078 1e3d 8caf 33bc 13e7 15be 2b28 813a
00000090: 11d0 42bd 7914 033d 33dc 04bd f919 eb3c
000000a0: 56ec 95bd 3174 b6bd f1f1 293d 7c3b 8dbd
000000b0: ac25 d63d 3bd4 23bc e1ba 6cbd 67c5 9cbb
000000c0: 3112 b43b a670 793d dae7 1bbe fe9e 94bd
000000d0: 7034 443d 04bc 87bd 345f 0a3c 352f b3bc
000000e0: 7831 63bd 0c35 403c d89a 8a3b 2fca 103d
000000f0: 5d05 033d 82c5 7e3d 1c2e 1cbd 2e00 223d
00000100: 8cc1 793d 5b7b 2abd 2834 c1bc b58f 383d
00000110: 2c6b 2b3d 3821 17bd 82ec e2ba 83be 2dbd
00000120: 0e81 803c 8e63 b53c 2913 a9bd 60b6 8bbb
00000130: b373 063a da19 63bd 3c74 6abd 32c9 d73d
00000140: c2b2 60bd 29f7 1e3d 0207 033d 0387 5bbc
00000150: 34ae 10bd d757 9abc 5205 46bc 98ca aabb
00000160: f70d cabd f428 013c cae4 703d 3039 a43d
00000170: bdb5 1dbd 512f 353d f0a3 51bd 159e 78bc
00000180: 6385 6bbd 26d3 573c 4f9f 4fbd 64fe 6c3d
00000190: 01b2 68bb fb5a 223d e394 08bd ae53 683d
000001a0: c826 d9bd a3d7 aebc 51b6 6b3d 2424 1bbd
000001b0: 9c09 993d 6090 353b ec99 5cbd 3ce4 8ebd
000001c0: f3b7 efbd ea43 d2bd dd07 f9bc 5ffb ad3c
000001d0: 6310 f5bc 2dde bbbb da61 19bd 8179 8ebc
000001e0: 108a 993b 9b6b 043d 0311 00bd 1666 87bd
000001f0: 478e 37bd fad5 00be 159d ac3d 6805 a60a
00000200: b15c acbd 79a5 56b9 11f7 2d3d cd6b 923c
00000210: 138a e03c fdc0 243d 9107 91bc 6a5c 73bc
00000220: d2a4 d8bb 88f4 56bc 915b 1c3c 5faf bdbd
00000230: c5ee c0bd d693 6a3c ae47 693d ded1 e33b
00000240: 8cfd 08bd f2a0 8e3a 6549 b8bc 3724 b03d
00000250: 2ce2 863c c14c 20bd 5075 f73c 6a9e 59bd
00000260: c58d 353c a64e 443d 701c 733d ab25 533a
00000270: 4625 2cbd 3e5c fc3c d17b 623d 3a30 cfbc
00000280: 61ae a9bc 6bff 85bd 02a5 30bd 816e c3bc
00000290: 45cf 33bb d7e5 0fbd 33ed 8c3c d0ff 26bc
000002a0: c9bc 01bd b9fd 4b3a 59fb 313c a4e3 183d
000002b0: 4719 4a3c 568b b03d 94a1 993b e772 7abc
000002c0: f519 693c 334a 173b 6da2 74bd c784 193d
000002d0: cc68 2f3c 5ef3 883d e126 373d 5530 9f3d
000002e0: acc9 0e3e 0f4d bebb f3ae 3ebd 1c4c 663b
000002f0: 3093 85bd 7f44 62bc fed2 74bc 071b 24bd
00000300: bbe4 513d 6b8c a1bc e69e f73c c3d9 86bc
00000310: 661d f73c 3b07 98bd 3030 c13c 08d9 04bb
00000320: 47fe 5fbb 3c86 e63d be2e 1abe 7bc1 983c
00000330: 3ac2 52bd f05e 31bb edc8 a33c cc83 b83c
00000340: 7f99 84bc 039f f33b a366 c53c 109c 21be
00000350: 63a0 aa3d 8c73 103d 0ca2 0ebd e9df 7abc
00000360: 6518 fb3b 41ef 103d d5ce 3739 38d1 143d
00000370: fd07 513d 097d 1bbc f9a0 5bbc 10d4 d28a
00000380: 0596 8e3c 0d16 f83d 5cba c7bd a02d e23d
00000390: 1633 cf3d bf87 a43c 465b 82bc 70ca 6f3d
000003a0: f098 873d 8198 9d3d d664 6abd 996b 06bd
000003b0: 8d30 bebc e466 ebb9 e7f6 a0bc 52be c73c
000003c0: 541c 21bd 81bd 7fbc 9149 68bd e3d4 253c
000003d0: a6e3 c8bc 846b 923d 3289 20bc 7b18 3c3d
000003e0: 7a31 9fbd d12b 73bd dfa1 86bc ecd2 b0bd
000003f0: f3a3 77bd 24be aebc 8cbe 0d3d 0e3e b1bd
